…
    Starting now: 2025-05-11 03:31:12.732253
[*] Loaded dataset 'ogbg-molbace' from 'OGB':
  Data(num_nodes=51577, edge_index=[2, 111536], edge_attr=[111536, 3], x=[51577, 9], y=[1513, 1])
  undirected: True
  num graphs: 1513
  avg num_nodes/graph: 34
  num node features: 9
  num edge features: 3
  num tasks: 1
  num classes: 2
Precomputing Positional Encoding statistics: ['RRWP'] for all graphs...
  ...estimated to be undirected: True
Done! Took 00:00:02.32
GraphGymModule(
  (model): GritTransformer(
    (encoder): FeatureEncoder(
      (node_encoder): AtomEncoder(
        (atom_embedding_list): ModuleList(
          (0): Embedding(119, 100)
          (1): Embedding(5, 100)
          (2-3): 2 x Embedding(12, 100)
          (4): Embedding(10, 100)
          (5-6): 2 x Embedding(6, 100)
          (7-8): 2 x Embedding(2, 100)
        )
      )
      (node_encoder_bn): BatchNorm1dNode(
        (bn): BatchNorm1d(100, eps=1e-05, momentum=0.1, affine=True, track_running_stats=True)
      )
      (edge_encoder): BondEncoder(
        (bond_embedding_list): ModuleList(
          (0): Embedding(5, 100)
          (1): Embedding(6, 100)
          (2): Embedding(2, 100)
        )
      )
      (edge_encoder_bn): BatchNorm1dNode(
        (bn): BatchNorm1d(100, eps=1e-05, momentum=0.1, affine=True, track_running_stats=True)
      )
    )
    (rrwp_abs_encoder): RRWPLinearNodeEncoder(
      (fc): Linear(in_features=21, out_features=100, bias=False)
    )
    (rrwp_rel_encoder): RRWPLinearEdgeEncoder(pad_to_full_graph=True,fill_value=0.0,Linear(in_features=21, out_features=100, bias=False))
    (pre_mp): GeneralMultiLayer(
      (Layer_0): GeneralLayer(
        (layer): Linear(
          (model): Linear(100, 100, bias=False)
        )
        (post_layer): Sequential(
          (0): BatchNorm1d(100, eps=1e-05, momentum=0.1, affine=True, track_running_stats=True)
          (1): PReLU(num_parameters=1)
        )
      )
    )
    (layers): Sequential(
      (0): GritTransformerLayer(in_channels=100, out_channels=100, heads=3, residual=True)
      [GritTransformerLayer(
        (act): PReLU(num_parameters=1)
        (attention): MultiHeadAttentionLayerGritSparse(
          (dropout): Dropout(p=0.2, inplace=False)
          (Q): Linear(in_features=100, out_features=99, bias=True)
          (K): Linear(in_features=100, out_features=99, bias=False)
          (E): Linear(in_features=100, out_features=198, bias=True)
          (V): Linear(in_features=100, out_features=99, bias=False)
          (act): ReLU()
        )
        (O_h): Linear(in_features=99, out_features=100, bias=True)
        (O_e): Linear(in_features=99, out_features=100, bias=True)
        (batch_norm1_h): BatchNorm1d(100, eps=1e-05, momentum=0.1, affine=True, track_running_stats=True)
        (batch_norm1_e): BatchNorm1d(100, eps=1e-05, momentum=0.1, affine=True, track_running_stats=True)
        (FFN_h_layer1): Linear(in_features=100, out_features=200, bias=True)
        (FFN_h_layer2): Linear(in_features=200, out_features=100, bias=True)
        (batch_norm2_h): BatchNorm1d(100, eps=1e-05, momentum=0.1, affine=True, track_running_stats=True)
      )]
      (1): GritTransformerLayer(in_channels=100, out_channels=100, heads=3, residual=True)
      [GritTransformerLayer(
        (act): PReLU(num_parameters=1)
        (attention): MultiHeadAttentionLayerGritSparse(
          (dropout): Dropout(p=0.2, inplace=False)
          (Q): Linear(in_features=100, out_features=99, bias=True)
          (K): Linear(in_features=100, out_features=99, bias=False)
          (E): Linear(in_features=100, out_features=198, bias=True)
          (V): Linear(in_features=100, out_features=99, bias=False)
          (act): ReLU()
        )
        (O_h): Linear(in_features=99, out_features=100, bias=True)
        (O_e): Linear(in_features=99, out_features=100, bias=True)
        (batch_norm1_h): BatchNorm1d(100, eps=1e-05, momentum=0.1, affine=True, track_running_stats=True)
        (batch_norm1_e): BatchNorm1d(100, eps=1e-05, momentum=0.1, affine=True, track_running_stats=True)
        (FFN_h_layer1): Linear(in_features=100, out_features=200, bias=True)
        (FFN_h_layer2): Linear(in_features=200, out_features=100, bias=True)
        (batch_norm2_h): BatchNorm1d(100, eps=1e-05, momentum=0.1, affine=True, track_running_stats=True)
      )]
      (2): GritTransformerLayer(in_channels=100, out_channels=100, heads=3, residual=True)
      [GritTransformerLayer(
        (act): PReLU(num_parameters=1)
        (attention): MultiHeadAttentionLayerGritSparse(
          (dropout): Dropout(p=0.2, inplace=False)
          (Q): Linear(in_features=100, out_features=99, bias=True)
          (K): Linear(in_features=100, out_features=99, bias=False)
          (E): Linear(in_features=100, out_features=198, bias=True)
          (V): Linear(in_features=100, out_features=99, bias=False)
          (act): ReLU()
        )
        (O_h): Linear(in_features=99, out_features=100, bias=True)
        (O_e): Linear(in_features=99, out_features=100, bias=True)
        (batch_norm1_h): BatchNorm1d(100, eps=1e-05, momentum=0.1, affine=True, track_running_stats=True)
        (batch_norm1_e): BatchNorm1d(100, eps=1e-05, momentum=0.1, affine=True, track_running_stats=True)
        (FFN_h_layer1): Linear(in_features=100, out_features=200, bias=True)
        (FFN_h_layer2): Linear(in_features=200, out_features=100, bias=True)
        (batch_norm2_h): BatchNorm1d(100, eps=1e-05, momentum=0.1, affine=True, track_running_stats=True)
      )]
      (3): GritTransformerLayer(in_channels=100, out_channels=100, heads=3, residual=True)
      [GritTransformerLayer(
        (act): PReLU(num_parameters=1)
        (attention): MultiHeadAttentionLayerGritSparse(
          (dropout): Dropout(p=0.2, inplace=False)
          (Q): Linear(in_features=100, out_features=99, bias=True)
          (K): Linear(in_features=100, out_features=99, bias=False)
          (E): Linear(in_features=100, out_features=198, bias=True)
          (V): Linear(in_features=100, out_features=99, bias=False)
          (act): ReLU()
        )
        (O_h): Linear(in_features=99, out_features=100, bias=True)
        (O_e): Linear(in_features=99, out_features=100, bias=True)
        (batch_norm1_h): BatchNorm1d(100, eps=1e-05, momentum=0.1, affine=True, track_running_stats=True)
        (batch_norm1_e): BatchNorm1d(100, eps=1e-05, momentum=0.1, affine=True, track_running_stats=True)
        (FFN_h_layer1): Linear(in_features=100, out_features=200, bias=True)
        (FFN_h_layer2): Linear(in_features=200, out_features=100, bias=True)
        (batch_norm2_h): BatchNorm1d(100, eps=1e-05, momentum=0.1, affine=True, track_running_stats=True)
      )]
    )
    (post_mp): GNNGraphHead(
      (layer_post_mp): MLP(
        (model): Sequential(
          (0): Linear(
            (model): Linear(100, 1, bias=True)
          )
        )
      )
    )
  )
)
accelerator: cpu
benchmark: False
best_by_loss: False
bn:
  eps: 1e-05
  mom: 0.1
cfg_dest: config.yaml
cfg_file: configs/GRIT/molbace-GRIT-RRWP.yaml
custom_metrics: []
dataset:
  cache_load: False
  cache_save: False
  dir: ./datasets
  edge_dim: 128
  edge_encoder: True
  edge_encoder_bn: True
  edge_encoder_name: Bond
  edge_encoder_num_types: 0
…
